…
2026-04-27 16:04:40.755782: W tensorflow/compiler/tf2tensorrt/utils/py_utils.cc:38] TF-TRT Warning: Cannot dlopen some TensorRT libraries. If you would like to use Nvidia GPU with TensorRT, please make sure the missing libraries mentioned above are installed properly.
Namespace(dataset='img100', saved_path='saved_models/mae.bt.rot.i100.pth', gpu=2, model='vit', verbose=False, epochs=100, eval_every=10, knn=True, lreg=True, linprobe=True, tsne=False, umap=False, cmet=True, nw=4, pf=2, aug='v1')
<All keys matched successfully>
Starting Hyperparameter Sweep on 2...
===> using linear mlp
Scheduler: None
MLP: MLP(
  (mlp): Linear(in_features=384, out_features=100, bias=True)
)
===> using linear mlp
Scheduler: None
MLP: MLP(
  (mlp): Linear(in_features=384, out_features=100, bias=True)
)
===> using linear mlp
Scheduler: None
MLP: MLP(
  (mlp): Linear(in_features=384, out_features=100, bias=True)
)
===> using linear mlp
Scheduler: None
MLP: MLP(
  (mlp): Linear(in_features=384, out_features=100, bias=True)
)
===> using linear mlp
Scheduler: None
MLP: MLP(
  (mlp): Linear(in_features=384, out_features=100, bias=True)
)
===> using linear mlp
Scheduler: None
MLP: MLP(
  (mlp): Linear(in_features=384, out_features=100, bias=True)
)
===> using linear mlp
Scheduler: None
MLP: MLP(
  (mlp): Linear(in_features=384, out_features=100, bias=True)
)
===> using linear mlp
Scheduler: None
MLP: MLP(
  (mlp): Linear(in_features=384, out_features=100, bias=True)
)
===> using linear mlp
Scheduler: None
MLP: MLP(
  (mlp): Linear(in_features=384, out_features=100, bias=True)
)
===> using linear mlp
Scheduler: None
MLP: MLP(
  (mlp): Linear(in_features=384, out_features=100, bias=True)
)
===> using linear mlp
Scheduler: None
MLP: MLP(
  (mlp): Linear(in_features=384, out_features=100, bias=True)
)
===> using linear mlp
Scheduler: None
MLP: MLP(
  (mlp): Linear(in_features=384, out_features=100, bias=True)
)
===> using linear mlp
Scheduler: None
MLP: MLP(
  (mlp): Linear(in_features=384, out_features=100, bias=True)
)
===> using linear mlp
Scheduler: None
MLP: MLP(
  (mlp): Linear(in_features=384, out_features=100, bias=True)
)
===> using linear mlp
Scheduler: None
MLP: MLP(
  (mlp): Linear(in_features=384, out_features=100, bias=True)
)
===> using linear mlp
Scheduler: <torch.optim.lr_scheduler.CosineAnnealingLR object at 0x7fd0e3a069e0>
MLP: MLP(
  (mlp): Linear(in_features=384, out_features=100, bias=True)
)
===> using linear mlp
Scheduler: <torch.optim.lr_scheduler.CosineAnnealingLR object at 0x7fd0e3a06650>
MLP: MLP(
  (mlp): Linear(in_features=384, out_features=100, bias=True)
)
===> using linear mlp
Scheduler: <torch.optim.lr_scheduler.CosineAnnealingLR object at 0x7fd0e3a06020>
MLP: MLP(
  (mlp): Linear(in_features=384, out_features=100, bias=True)
)
===> using linear mlp
Scheduler: <torch.optim.lr_scheduler.CosineAnnealingLR object at 0x7fd0e3a05a20>
MLP: MLP(
  (mlp): Linear(in_features=384, out_features=100, bias=True)
)
===> using linear mlp
Scheduler: <torch.optim.lr_scheduler.CosineAnnealingLR object at 0x7fd0e3a04580>
MLP: MLP(
  (mlp): Linear(in_features=384, out_features=100, bias=True)
)
===> using linear mlp
Scheduler: <torch.optim.lr_scheduler.CosineAnnealingLR object at 0x7fd0e3a04af0>
MLP: MLP(
  (mlp): Linear(in_features=384, out_features=100, bias=True)
)
===> using linear mlp
Scheduler: <torch.optim.lr_scheduler.CosineAnnealingLR object at 0x7fd0e3a04df0>
MLP: MLP(
  (mlp): Linear(in_features=384, out_features=100, bias=True)
)
===> using linear mlp
Scheduler: <torch.optim.lr_scheduler.CosineAnnealingLR object at 0x7fd0e3a05660>
MLP: MLP(
  (mlp): Linear(in_features=384, out_features=100, bias=True)
)
===> using linear mlp
Scheduler: <torch.optim.lr_scheduler.CosineAnnealingLR object at 0x7fd0e3a05390>
MLP: MLP(
  (mlp): Linear(in_features=384, out_features=100, bias=True)
)
===> using linear mlp
Scheduler: <torch.optim.lr_scheduler.CosineAnnealingLR object at 0x7fd0e3a04e20>
MLP: MLP(
  (mlp): Linear(in_features=384, out_features=100, bias=True)
)
===> using linear mlp
Scheduler: <torch.optim.lr_scheduler.CosineAnnealingLR object at 0x7fd064d78130>
MLP: MLP(
  (mlp): Linear(in_features=384, out_features=100, bias=True)
)
===> using linear mlp
Scheduler: <torch.optim.lr_scheduler.CosineAnnealingLR object at 0x7fd064d78250>
MLP: MLP(
  (mlp): Linear(in_features=384, out_features=100, bias=True)
)
===> using linear mlp
Scheduler: <torch.optim.lr_scheduler.CosineAnnealingLR object at 0x7fd064d78370>
MLP: MLP(
  (mlp): Linear(in_features=384, out_features=100, bias=True)
)
===> using linear mlp
Scheduler: <torch.optim.lr_scheduler.CosineAnnealingLR object at 0x7fd064d78490>
MLP: MLP(
  (mlp): Linear(in_features=384, out_features=100, bias=True)
)
===> using linear mlp
Scheduler: <torch.optim.lr_scheduler.CosineAnnealingLR object at 0x7fd064d785b0>
MLP: MLP(
  (mlp): Linear(in_features=384, out_features=100, bias=True)
)
--------------------------------
[GPU2] Test Accuracy for probe0 at epoch: 0: 0.292
[GPU2] Test Accuracy for probe1 at epoch: 0: 0.291
[GPU2] Test Accuracy for probe2 at epoch: 0: 0.29
[GPU2] Test Accuracy for probe3 at epoch: 0: 0.424
[GPU2] Test Accuracy for probe4 at epoch: 0: 0.409
[GPU2] Test Accuracy for probe5 at epoch: 0: 0.426
[GPU2] Test Accuracy for probe6 at epoch: 0: 0.469
…
