…
[GPU1] epochs: [74/100] train_acc: 0.605 train_loss_sup: 1.753
[GPU1] epochs: [75/100] train_acc: 0.605 train_loss_sup: 1.751
[GPU1] epochs: [76/100] train_acc: 0.605 train_loss_sup: 1.750
[GPU1] epochs: [77/100] train_acc: 0.606 train_loss_sup: 1.748
Namespace(dataset='img100', saved_path='saved_models/mae.bt.rot.i100.ec300.pth', gpu=1, model='vit', verbose=False, epochs=100, eval_every=10, knn=True, lreg=True, linprobe=True, tsne=False, umap=False, cmet=True, nw=4, pf=2, aug='v1')
<All keys matched successfully>
Starting Hyperparameter Sweep on 1...
===> using linear mlp
Scheduler: None
MLP: MLP(
  (mlp): Linear(in_features=384, out_features=100, bias=True)
)
===> using linear mlp
Scheduler: None
MLP: MLP(
  (mlp): Linear(in_features=384, out_features=100, bias=True)
)
===> using linear mlp
Scheduler: None
MLP: MLP(
  (mlp): Linear(in_features=384, out_features=100, bias=True)
)
===> using linear mlp
Scheduler: None
MLP: MLP(
  (mlp): Linear(in_features=384, out_features=100, bias=True)
)
===> using linear mlp
Scheduler: None
MLP: MLP(
  (mlp): Linear(in_features=384, out_features=100, bias=True)
)
===> using linear mlp
Scheduler: None
MLP: MLP(
  (mlp): Linear(in_features=384, out_features=100, bias=True)
)
===> using linear mlp
Scheduler: None
MLP: MLP(
  (mlp): Linear(in_features=384, out_features=100, bias=True)
)
===> using linear mlp
Scheduler: None
MLP: MLP(
  (mlp): Linear(in_features=384, out_features=100, bias=True)
)
===> using linear mlp
Scheduler: None
MLP: MLP(
  (mlp): Linear(in_features=384, out_features=100, bias=True)
)
===> using linear mlp
Scheduler: None
MLP: MLP(
  (mlp): Linear(in_features=384, out_features=100, bias=True)
)
===> using linear mlp
Scheduler: None
MLP: MLP(
  (mlp): Linear(in_features=384, out_features=100, bias=True)
)
===> using linear mlp
Scheduler: None
MLP: MLP(
  (mlp): Linear(in_features=384, out_features=100, bias=True)
)
===> using linear mlp
Scheduler: None
MLP: MLP(
  (mlp): Linear(in_features=384, out_features=100, bias=True)
)
===> using linear mlp
Scheduler: None
MLP: MLP(
  (mlp): Linear(in_features=384, out_features=100, bias=True)
)
===> using linear mlp
Scheduler: None
MLP: MLP(
  (mlp): Linear(in_features=384, out_features=100, bias=True)
)
===> using linear mlp
Scheduler: <torch.optim.lr_scheduler.CosineAnnealingLR object at 0x7812a835f490>
MLP: MLP(
  (mlp): Linear(in_features=384, out_features=100, bias=True)
)
===> using linear mlp
Scheduler: <torch.optim.lr_scheduler.CosineAnnealingLR object at 0x7812a835c4f0>
MLP: MLP(
  (mlp): Linear(in_features=384, out_features=100, bias=True)
)
===> using linear mlp
Scheduler: <torch.optim.lr_scheduler.CosineAnnealingLR object at 0x7812a835e200>
MLP: MLP(
  (mlp): Linear(in_features=384, out_features=100, bias=True)
)
===> using linear mlp
Scheduler: <torch.optim.lr_scheduler.CosineAnnealingLR object at 0x7812a835ded0>
MLP: MLP(
  (mlp): Linear(in_features=384, out_features=100, bias=True)
)
===> using linear mlp
Scheduler: <torch.optim.lr_scheduler.CosineAnnealingLR object at 0x7812a835d9c0>
MLP: MLP(
  (mlp): Linear(in_features=384, out_features=100, bias=True)
)
===> using linear mlp
Scheduler: <torch.optim.lr_scheduler.CosineAnnealingLR object at 0x7812a835f250>
MLP: MLP(
  (mlp): Linear(in_features=384, out_features=100, bias=True)
)
===> using linear mlp
Scheduler: <torch.optim.lr_scheduler.CosineAnnealingLR object at 0x7812a8205ab0>
MLP: MLP(
  (mlp): Linear(in_features=384, out_features=100, bias=True)
)
===> using linear mlp
Scheduler: <torch.optim.lr_scheduler.CosineAnnealingLR object at 0x7812a8205150>
MLP: MLP(
  (mlp): Linear(in_features=384, out_features=100, bias=True)
)
===> using linear mlp
Scheduler: <torch.optim.lr_scheduler.CosineAnnealingLR object at 0x7812a8205720>
MLP: MLP(
  (mlp): Linear(in_features=384, out_features=100, bias=True)
)
===> using linear mlp
Scheduler: <torch.optim.lr_scheduler.CosineAnnealingLR object at 0x7812a82049d0>
MLP: MLP(
  (mlp): Linear(in_features=384, out_features=100, bias=True)
)
===> using linear mlp
Scheduler: <torch.optim.lr_scheduler.CosineAnnealingLR object at 0x7812a8206980>
MLP: MLP(
  (mlp): Linear(in_features=384, out_features=100, bias=True)
)
===> using linear mlp
Scheduler: <torch.optim.lr_scheduler.CosineAnnealingLR object at 0x7812a8205d50>
MLP: MLP(
  (mlp): Linear(in_features=384, out_features=100, bias=True)
)
===> using linear mlp
Scheduler: <torch.optim.lr_scheduler.CosineAnnealingLR object at 0x7812a83a5570>
MLP: MLP(
  (mlp): Linear(in_features=384, out_features=100, bias=True)
)
===> using linear mlp
Scheduler: <torch.optim.lr_scheduler.CosineAnnealingLR object at 0x7812a83a55d0>
MLP: MLP(
  (mlp): Linear(in_features=384, out_features=100, bias=True)
)
===> using linear mlp
Scheduler: <torch.optim.lr_scheduler.CosineAnnealingLR object at 0x7812a83a5750>
MLP: MLP(
  (mlp): Linear(in_features=384, out_features=100, bias=True)
)
--------------------------------
[GPU1] Test Accuracy for probe0 at epoch: 0: 0.303
[GPU1] Test Accuracy for probe1 at epoch: 0: 0.297
[GPU1] Test Accuracy for probe2 at epoch: 0: 0.299
[GPU1] Test Accuracy for probe3 at epoch: 0: 0.436
[GPU1] Test Accuracy for probe4 at epoch: 0: 0.429
[GPU1] Test Accuracy for probe5 at epoch: 0: 0.435
[GPU1] Test Accuracy for probe6 at epoch: 0: 0.458
…
